wmusic.pth (torch, 950126 bytes, 22 tensors)

conv1.weight f4 [12, 1, 3, 3]
00000000: b594 2e3d 94d9 e1bd 7a27 913d 9561 14bb
00000010: c0a8 6d3d aeac 783e 4533 91be f345 b5be
00000020: cbf8 41be 0f60 4c3d 6b91 223e b74f 98be
00000030: 4a5e 98be 9eab 3ebe ede8 983e 2dc5 dd3d
00000040: ba86 fdbb ef09 66bd db9c ad3c 8c27 68be
00000050: 1e43 aabe ceed 053e 714d 633e e127 423e
00000060: c3f5 9bbe f1d7 88be 60c4 dc3b 59b4 d6be
00000070: 6a0c 6c3d 9fc7 5c3e 881e 3fbc c715 11be
00000080: c387 6f3e e88d cf3d 0012 343b 98fd 62be
00000090: 1256 f1bd affa b6be e507 723e ac2b 36bd
000000a0: a95d 4a3e 3c22 53bd ed94 0cbd aac7 4cbe
000000b0: 4724 fc3d d85f a13c 254f 243e cc43 c73d
000000c0: 31fb f63c f030 c9bc 8028 173e 14a7 8d3e
000000d0: fb4f a73d 41ca 1fbf bc26 e1bd 6572 b0be
000000e0: 9789 5ebe 8452 5e3e ce73 71bd 8b41 debc
000000f0: 9945 003e 8a97 74be d792 063e a7f6 eebe
00000100: a6a5 523e ba1d 253e 58bb 8fbe f7c2 913e
00000110: 2cc9 d4be 140d 11bc eef6 aabd 3535 0a3d
00000120: b1c0 a33d bad5 8e3a a742 8bbe 9993 953e
00000130: ef72 a8be e80d b73d c3e6 0b3e 91e8 33be
00000140: 0909 11be 8c7a 01bd e593 eebd 0cae a13e
00000150: 5d29 9a3e e9ea fa3d 4b55 f13d f6a8 d5bd
00000160: eedd 813e 1d10 563e eb3a 483c 1765 8cbe
00000170: 7eca a6be a030 95bd dfd5 8ebe d719 84be
00000180: a5bb d33b 5fa5 5fbe 9f4a 2bbe f999 c3bd
00000190: a312 69be 3d62 7f3e 39cd 86be e5b1 52be
000001a0: 0571 56be 3618 b4be bf50 b0be 4307 fabc
0.042622287 -0.11027828 0.07087608 -0.0022641171 0.05802226 0.24284622 -0.28359428 -0.3540493
-0.18942563 0.049896296 0.15875785 -0.29748318 -0.29759437 -0.18620154 0.29865208 0.10828624
-0.007737008 -0.056161817 0.021192959 -0.22671336 -0.3325433 0.13078997 0.2219751 0.18960525
-0.3046094 -0.2672725 0.006737277 -0.4193447 0.057629026 0.21560524 -0.011664994 -0.14168464
0.23391633 0.10134488 0.002747655 -0.22167051 -0.11783995 -0.3573813 0.23635824 -0.044475242
0.19762291 -0.05154632 -0.034321714 -0.19998041 0.12311607 0.019699022 0.16045816 0.09729728
0.030149074 -0.024559468 0.14761543 0.27666533 0.08169552 -0.6241799 -0.10993716 -0.34462276
-0.21732174 0.21711165 -0.05894833 -0.027130863 0.1252655 -0.23885933 0.13141952 -0.46672556
0.20571002 0.16124621 -0.2807262 0.2846906 -0.41559732 -0.008853216 -0.08347879 0.03374215
0.07995737 0.0010897436 -0.2719929 0.2921417 -0.32900187 0.08938199 0.13662247 -0.17569186
-0.14163603 -0.03161101 -0.116493024 0.315781 0.30109683 0.12251837 0.117838465 -0.10432617
0.2536463 0.20904584 0.012221078 -0.27420875 -0.32576364 -0.07284665 -0.27897546 -0.25800964
0.006461578 -0.21840428 -0.16727684 -0.09550852 -0.22761016 0.24939819 -0.26328447 -0.20575674
-0.20941551 -0.3517472 -0.34436604 -0.03052104

conv1.bias f4 [12]
00000000: aeda 77b8 0a6f 0ab9 0623 d137 d60b 02b5
00000010: 429e 4a37 64cc fcb4 252f 8137 6e87 3b38
00000020: 1891 0bb7 e9dc aeb4 d0ac b2b7 b88e 4637
-5.909305e-05 -0.00013202071 2.493105e-05 -4.8446e-07 1.20769855e-05 -4.7087372e-07 1.5399952e-05 4.4710403e-05
-8.318828e-06 -3.257076e-07 -2.1299726e-05 1.1834949e-05

bn1.weight f4 [12]
00000000: f8ce 743f 363e 873f b63f 903f 4c9c 2d3f
00000010: 4930 603f 4e47 2e3f 58e9 9c3f 08aa 7c3f
00000020: 9ab2 703f f769 3f3f bdf4 a43f 4172 b63f
0.9562831 1.056586 1.1269443 0.67816615 0.8757368 0.6807755 1.2258711 0.9869695
0.94022524 0.74771065 1.2887188 1.4253618

bn1.bias f4 [12]
00000000: a698 3fbc 82e9 983e e1e6 7cbd 635b f73d
00000010: cec3 183e 987c b03c 7d63 833d a760 0b3e
00000020: 38e1 05bd 9f3e b5bd f217 4bbd 024a 26be
-0.011694109 0.29865652 -0.06174362 0.120779775 0.14918444 0.021543786 0.0641546 0.13611089
-0.03268549 -0.08849835 -0.049583383 -0.16239169

bn1.running_mean f4 [12]
00000000: a85e 44c2 4ab6 01c2 cd37 81c2 9f5c b5c1
00000010: 298e 03c2 aa71 0142 b0e5 94c2 aa6f 92c2
00000020: 7de4 17c2 8904 0343 89b7 49c3 8d05 2dc3
-49.092438 -32.428017 -64.608986 -22.670225 -32.88883 32.361 -74.44861 -73.218094
-37.973133 131.01772 -201.71693 -173.02168

bn1.running_var f4 [12]
00000000: 52bf ef47 8c72 9b47 a469 3448 4e01 d247
00000010: 28da 9747 2cba 1148 fbd8 8048 72f9 7248
00000020: 98d6 e747 9cc3 c148 a8aa 5f49 68c3 2449
122750.64 79589.09 184742.56 107522.61 77748.31 149224.69 263879.84 248805.78
118701.19 396828.88 916138.5 674870.5

conv2.weight f4 [24, 12, 3, 3]
00000000: 9989 bc3c c09b c83c bb2c 0fbd 5d09 3dbd
00000010: 810b 0fbc 679f 693c b203 0c3a 60d3 843c
00000020: a978 0cbe fc7e 17be 4fe7 82be a4dd 93be
00000030: 7408 7c3d c632 7d3c 8049 adbd b0ef 0b3e
00000040: 6266 373d d8df 69be 32af a1bd 62bc 993d
00000050: d5f4 013e d0f4 b13d 524a cb3d 0ade 87be
00000060: bb0d 70bc 8e5f 883b d279 263e 4590 02be
00000070: a4fe 41be 5d00 25be d377 ea3d d823 01be
00000080: 9130 3fbe 58fc 0d3e cc73 51bd 35b1 c3bd
00000090: 9396 34bd 697e 1ebd 1470 ddbd ddf3 80be
000000a0: 0250 b1bd a049 57be 97a1 a73c abda 4dbe
000000b0: bf66 ffbd 670f c1bd b4d9 bbbd ca70 21bc
000000c0: 1b5f 173e de3c a93d 718b bc3c 7cbb be3d
000000d0: 9af7 23bd e883 1fbe 849f aabd 450c 013e
000000e0: 66da e73d e462 e5bc 3fbc 0cbe 9143 b33d
000000f0: fe83 f1bd d8c5 7dbd be0a c93c c188 86be
00000100: 0a1e 3abe 9cc4 2bbe 6304 dabc f175 0b3d
00000110: 0d88 1b3e 36e5 6dbd aa5e 62be a2a4 88be
00000120: f637 d03d 72f6 03be 197f 05be 6cdf 503d
00000130: c0ec ca3c cd22 69bd 5211 083c b32a 8fbd
00000140: f00c 1cbe cd1d c3bd b9fd 5cbd 864f afbc
00000150: 37dc 4b3d e586 93bd 0a60 d1bd d68b 973d
00000160: 3d93 f8bd 03dd dabc 922b 483d a62a 803d
00000170: 11ff d33d 5f41 1ebe 5c17 ab3d 4d88 053e
00000180: b36a 2dbd 09c4 fb3d 07f2 573e b542 02bd
00000190: c559 103d 4a14 5d3d 3a1c 93be fb0f cebd
000001a0: 73bb 143c 0288 02be 5e8f 10be a141 6b3d
000001b0: 1b81 8bbd 4544 40be f4bf 87be 4856 65be
000001c0: c6b2 a6bd 4dc7 3dbe a010 733b bdb4 593d
000001d0: 2f5c 5abd f28b 81bd 7874 bebc 7193 debc
000001e0: cbea cbbd 8f2a 3dbd a03d 8cbd 7153 a33d
000001f0: f0ea 99ba aeaf 09be af11 37be 56b6 09be
00000200: 3ec6 0bbe df09 29be 8a85 94be fc66 67be
00000210: 18f6 11be 7119 e6bc 8d0f 89be 3058 f6bc
00000220: 019f 46bc b86e 37be 6ffa b43d f203 b1bd
00000230: 195c e7ba 60fc 82bd 699c 253c 7986 85bd
00000240: be77 a03c a32c 753c d658 90bc 8b21 7fbd
00000250: d66d b2bd f0ae 853d 160e dbbc 5f24 393d
00000260: 74bc c53d f100 bbbd 6be4 7a3d 762c c9bc
00000270: c77b a9bd 4d93 efbd 2bfb 6dbe 9a30 63bd
00000280: cd40 d2bd 3f2b 96be 968f a6bd 027f 813c
00000290: 2e37 163d 5db3 ffbd 117b 99bd 652e bbbc
000002a0: 0174 10be 5219 51bd 2e48 893e b24a 16bc
000002b0: 0d01 dbbc b3de d93d a59e 1c3c 7cfd d5bc
000002c0: 6109 293c 388b 66bd 2949 123e 892c f83d
000002d0: 12a5 babd 4d5d 09bd b246 9bbd 82a3 a0bc
000002e0: 6c0c b9bd e0cc 2abc 32a5 8abd 9bf1 1cbe
000002f0: 0ca2 193e 30d9 993d 83c9 c6bc 0c74 ab3b
00000300: 1e3d d23d 9486 6e3d ce4f b9bc 922d 9ebc
00000310: 45d1 63be 605a 85bd d196 093e a3b7 dd3d
00000320: f09d 183d 53f9 0e3b a318 523c cd2b 3c3c
00000330: 5f24 073e 9def 0cbd 87f2 eb3c 3a66 373d
00000340: d195 103e 442a 6b3d 874f ccbd 464b 573d
00000350: ee23 fabd 6132 89bd 2b03 683d e63a 12bd
00000360: 4ef3 1b3d cd79 80bd 4f08 09be 706d 8dbd
00000370: f944 313d a358 8f3c fb12 183d 33ac 243d
00000380: 5bb2 2bbe 8347 91be 2d2a 5a3d a3ec 053d
00000390: c1b2 9bbe ebc8 c7bd a6fd 7abd a66e 36be
000003a0: 0337 2f3d 1282 b43d 725b 0c3e 6262 ce3d
000003b0: 4ded edbc bf71 b53c ed59 013e 1599 c43d
000003c0: 3d2f 2c3d 38a8 4f3d 4883 ec3c 723e 0ebe
000003d0: b6b6 c8bc 82a3 5e3c 1d20 57be 1f74 1bbe
000003e0: 0d41 ffbd 1863 0bbe b106 2dbd 29ab 4dbd
000003f0: ccd0 d3bb 8472 223d 0c42 7f3d 04b2 c3be
0.02301483 0.02448833 -0.034954768 -0.046151508 -0.00873077 0.014259196 0.0005341127 0.016214073
-0.13717903 -0.14794534 -0.255671 -0.28880036 0.0615315 0.015454 -0.08461285 0.13665652
0.044775374 -0.22839296 -0.07894744 0.07506634 0.12691052 0.086892724 0.09926285 -0.2653659
-0.014651711 0.0041617816 0.16257408 -0.12750347 -0.18944794 -0.1611342 0.11448636 -0.1261133
-0.1867087 0.13865793 -0.051135823 -0.09555284 -0.04408891 -0.038694773 -0.10812393 -0.25186053
-0.086578384 -0.2102418 0.020462794 -0.20102946 -0.12470769 -0.09426766 -0.09172383 -0.009853551
0.14782374 0.082635626 0.02301571 0.093131036 -0.040031053 -0.15577662 -0.083312064 0.12602337
0.11320953 -0.028001256 -0.13743685 0.08753122 -0.11792754 -0.061956257 0.024541255 -0.2627621
-0.18175521 -0.1677422 -0.02661342 0.034048025 0.15188618 -0.05807992 -0.22106424 -0.26688105
0.10166924 -0.1288698 -0.13036765 0.05099432 0.024771094 -0.056917954 0.008304911 -0.06990566
-0.1523931 -0.095271684 -0.053952906 -0.021400224 0.04977056 -0.072034635 -0.10223396 0.073997185
-0.121374585 -0.026716715 0.048869677 0.062581345 0.103513844 -0.15454625 0.08354065 0.13040276
-0.042338084 0.1229325 0.2108842 -0.031801898 0.03524186 0.053974427 -0.28732473 -0.10061642
0.0090778945 -0.12747195 -0.1411719 0.057435635 -0.06811734 -0.18776043 -0.26513636 -0.22396195
-0.08139567 -0.18533058 0.0037088767 0.05315088 -0.05331057 -0.063255206 -0.023248896 -0.027169915
-0.099568926 -0.046183165 -0.068476915 0.079748996 -0.001174299 -0.13445923 -0.1787784 -0.13448462
-0.13649842 -0.16507672 -0.29008132 -0.22597879 -0.14254034 -0.028088303 -0.26769677 -0.030071348
-0.01212287 -0.1791333 0.08836829 -0.08643331 -0.0017651349 -0.06395793 0.010108092 -0.06519789
0.019588348 0.0149642555 -0.017620485 -0.06228785 -0.08712356 0.06527507 -0.026740115 0.0452007
0.09655085 -0.09131039 0.061252993 -0.024557333 -0.08275562 -0.11698017 -0.23240344 -0.055466272
-0.10266266 -0.2932987 -0.081328556 0.015807632 0.036673717 -0.12485383 -0.07494176 -0.022849271
-0.14106752 -0.051049538 0.2681288 -0.009173082 -0.0267339 0.1063818 0.009559308 -0.026121847
0.0103171775 -0.056285113 0.14285721 0.121178694 -0.09113516 -0.033536244 -0.075818434 -0.019609217
-0.090355724 -0.010424823 -0.0676979 -0.1532654 0.15003222 0.07512128 -0.02426601 0.0052323397
0.102655634 0.058233812 -0.022621062 -0.019308839 -0.22247799 -0.06511378 0.13436438 0.108260415
0.037259996 0.002181609 0.012823257 0.011485052 0.13197468 -0.0344082 0.02880217 0.044775225
0.1411965 0.057413355 -0.09976106 0.05256202 -0.12213884 -0.06699062 0.056643646 -0.0357007
0.03807383 -0.06273232 -0.13382076 -0.06905639 0.043278668 0.01749832 0.037127476 0.040203284
-0.16767256 -0.28374872 0.05326288 0.032696377 -0.30409816 -0.09755119 -0.061277054 -0.17815647
0.042777073 0.088138714 0.13706759 0.10077359 -0.029043818 0.022148965 0.1263196 0.095995106
0.042037237 0.050697535 0.028871194 -0.13891008 -0.024501186 0.013588788 -0.21008344 -0.15181015
-0.12463579 -0.1361202 -0.04224271 -0.05021206 -0.0064640995 0.03965999 0.062318847 -0.38221753

conv2.bias f4 [24]
00000000: 999f 973a 44ac e73a 284d 6eba 62c1 c7b8
00000010: 0b74 41b9 9e66 2eba 4f36 9039 2be3 8eba
00000020: ad4e 00ba b446 2b39 6f5a 98b9 2cb4 1a3a
00000030: baba 00ba ad64 6b37 5d8a 97ba 4a78 95ba
00000040: b46c 103a aef2 a839 affb 1ebb 00d9 17ba
00000050: 6056 a939 5542 2539 b80e a238 fe52 d43a
0.001156795 0.001767524 -0.00090904767 -9.52508e-05 -0.00018449144 -0.00066528644 0.00027506283 -0.0010901442
-0.0004894536 0.0001633417 -0.00029059077 0.00059014815 -0.0004910637 1.4030532e-05 -0.0011561621 -0.0011403647
0.0005509362 0.00032224267 -0.0024258902 -0.00057925284 0.00032298546 0.00015760337 7.7275035e-05 0.001619905

bn2.weight f4 [24]
00000000: dc8e b53f 72e4 943f 72c6 833f 2595 883f
00000010: 41fa 683f 2daf 6b3f f421 373f d49d 7c3f
00000020: d581 793f a103 473f 4cf0 833f 346e 833f
00000030: 23be 853f 0e86 ae3e f1f2 8d3f 422f 863f
00000040: cb9f 903f f736 873f 4b9c 953f c453 733f
00000050: b4c7 9a3f 608b 5e3f 773a 873f d3a8 983f
1.4184222 1.1632216 1.0294936 1.0670515 0.9100686 0.9206417 0.71536183 0.98678327
0.9746373 0.7773991 1.0307708 1.0268006 1.044865 0.3408665 1.1089765 1.0483172
1.1298765 1.0563649 1.1688322 0.9504969 1.2092195 0.8693142 1.0564717 1.1926521

bn2.bias f4 [24]
00000000: 3082 60bd 6c69 03be ed62 13be 25a6 3fbd
00000010: b077 64bd b207 b6bd f4e1 1ebe bb96 90bd
00000020: b399 323b 026b 013d 6ee8 2bbe 3f6e 10bd
00000030: 9d88 26be 8058 50be 7a57 f2bd 0028 78bd
00000040: 4acc 143e fb36 72bd f1e0 6bbe 9bf5 7cbe
00000050: f726 913c 10d3 e8bd b5fb 29be 820e eebd
-0.054811656 -0.12833184 -0.14393206 -0.046789307 -0.055778205 -0.088881865 -0.15515882 -0.070599996
0.0027252256 0.03159619 -0.16787884 -0.03526139 -0.16263051 -0.2034626 -0.11833091 -0.060585022
0.14531055 -0.059134465 -0.23035027 -0.24703066 0.017718775 -0.11368382 -0.16599925 -0.11623861

bn2.running_mean f4 [24]
00000000: 83fc 9abf c1ce 31bf ec50 33bf aab4 5cbf
00000010: ecf3 bcbe eb1b e83b 4562 96bf 34d6 29be
00000020: a643 2abf 91a5 7cbf 63dd d8be 7e86 84bd
00000030: 7005 6bbe 6e39 2c3e d61b 84be f65e 70be
00000040: 16e7 83bf ab0b 9bbe e0ba 08be 7a6d a13e
00000050: d92c 9dbf 9191 27bf b9fd a6be 781d 38bf
-1.210831 -0.69456106 -0.7004535 -0.8621317 -0.36904848 0.007083406 -1.174874 -0.16585618
-0.66509473 -0.98690134 -0.42356405 -0.06470965 -0.22951293 0.16818783 -0.25802487 -0.23473725
-1.0304897 -0.3028234 -0.13352537 0.31528836 -1.2279311 -0.6545649 -0.3261545 -0.71919966

bn2.running_var f4 [24]
00000000: 1d20 c63f 4f5b 9c3f aa00 553f 5a53 7e3f
00000010: 9f14 a33e 1cb0 5d3f 24cd 5b3f 5d3a 423f
00000020: 0634 613f 2718 823f d42e 523f 6929 263f
00000030: dbc2 fe3e 7219 d73e 0d42 2d3f d03d 193f
00000040: fb82 f33f 0889 3a3f e30d 193f c2b3 cc3e
00000050: 19e4 4e40 bc4b 9a3f 7895 073f ec4e 6a3f
1.547855 1.2215365 0.8320414 0.99345934 0.3185167 0.86596847 0.85859895 0.75870305
0.87970006 1.0163621 0.82102704 0.64906937 0.49758038 0.420116 0.6767891 0.59859943
1.9024347 0.72865343 0.59786814 0.39980894 3.232672 1.2054362 0.52962446 0.91526675

conv3.weight f4 [48, 24, 3, 3]
00000000: f4b5 13bd fdfb 30be 7d5a 7f3c 83c7 c2bc
00000010: 75da 113e 9f4d 793d 15ca 4bbd 5560 07bd
00000020: dd65 2f3e b914 a53c ceba df3c 0a4a 293d
00000030: d933 0fbe 6fbc 27bd cdab 11bb a7d2 5c3c
00000040: eeaa 133b 77fc 353d 9124 c73c 8d89 99bd
00000050: b188 8d3d 69ce b33d c190 02be e8ab 943d
00000060: 9fe6 983d ff19 933d 43a3 803d 7cd0 98be
00000070: f287 54be dee7 29be 912a 673e 7b68 943d
00000080: 556f 57bd 610b b03d 6aa1 283d 4e55 8a3d
00000090: 75c6 283e 6d0f 913e 68ab 043e 86a2 b0bd
000000a0: a800 2b3d 2b6d a83d 7a37 9e3d b803 19be
000000b0: f84c 35bd c8f1 e7bd 96da a6b9 8a71 1a3e
000000c0: 2108 75be 2de2 26bd c50e 32bc a675 c8bd
000000d0: 140a ef3c 5b46 f839 7caa 52bc 98c6 dabc
000000e0: 848d cabd 4914 df3b 0a08 733b 317b 01bd
000000f0: 5889 8d3c 9f2a c33c 26cf b5bd cbe5 0abe
00000100: 32bd 8fbd a6e0 60bc 0ad5 6a3e 4216 3a3d
00000110: a817 3cbd dfdd 4dbd 241c d43d e383 c03b
00000120: f0b7 c23c 80fa 593e acb7 8b3d 5ff0 2dbe
00000130: 51cb 93bd 572a 24bd 2107 bd3d 7718 4f3d
00000140: 87dd 063d 1b18 30bd cc2a f8bc 33ef 4dbd
00000150: 50e6 fd3c 66c0 1dbc 8229 983d d0b1 adbd
00000160: 45b6 0abe db9c 403c 66b0 4a3d 7892 68bd
00000170: 9d63 0bbe e9f2 253e 5376 a73d 93e1 903d
00000180: 4a61 4d3d 3af1 f4bb cb5c 033e bb8e b7bd
00000190: 8d6b 65bd e681 bebd 5a94 a03d 34df cb3b
000001a0: 3af6 13bd cc1c 6abd 865d 7abd 3531 1bbc
000001b0: 2a36 f53d f302 473d 6075 ad3d 527a 313e
000001c0: 1c7c e53d e321 36bd 999c 773e 991b 3d3e
000001d0: 26a4 a9bb 7cc7 b9bc 444c 523d 4c79 cdbc
000001e0: e1fe 93bc 811b 463d 349e a6bc a92e 63bd
000001f0: a2c8 983d 397b 1d3d 1802 993d 168e 27be
00000200: 30ed eabd 1677 10bd 09ca bcbd 2568 cebd
00000210: 98ea 0d3e 6a2b f2bc c21a 913b afc2 a8bd
00000220: dc44 e7bd c6ee c53d be81 90bd d1e2 183c
00000230: 1070 3fbd d1b8 083e 0852 c33d f677 0d3d
00000240: 0c03 82bd bf2e febc 0ff8 4d3e 16a0 b0bd
00000250: c561 56bd 3d71 c5bd 6593 143e ab41 a23d
00000260: 9dda e83d 9d7e 083e 16a1 84be 4c59 39bd
00000270: f7b7 95ba 88af 1dbe 53b6 73be d4a4 e8bd
00000280: 25d8 93bd 0ed1 79bd ece8 2abb f8e5 84bd
00000290: 5871 bf3d 61a5 65bd d853 88bd 7b4d 2abe
000002a0: 916e 273e 5e4f 623d 3e2f 16bd 67aa 9c3c
000002b0: 7868 24bc 0de4 023e aba6 85bd 2e1d 8d3d
000002c0: 29de 81bc f543 d53a f642 573c 16f7 8abd
000002d0: 2219 1dbe 1092 eebd d763 aebd ee9a b93c
000002e0: 7d38 16be b137 5ebd ca8c c73d 10ce 4fbb
000002f0: 0075 22bd 43eb af3d cdc5 833c 1dbb 54bd
00000300: ecf4 d13c 44c7 91bc 453d d6bd 0702 cabd
00000310: dec0 4ebc 6390 13bc f754 b63d 8677 3ebe
00000320: 8ca0 90bd 7cb7 23be fad0 373d d536 00bc
00000330: 5dd9 70bd e24e 16bd 8fe4 75be 1b5a 013e
00000340: 2e2f 983e a8c2 a13d 7019 ab3d 4ccd fa3d
00000350: 611a 08be 3f86 afbe ac06 4e3b a8a6 cd3d
00000360: 8245 3b3d fbc4 5c3d e246 8b3e 3341 1dbc
00000370: c53a a33d 8764 10bd 770d a13d b7cc 6a3e
00000380: 1bd4 d2bd 7a0d cebd fe17 4b3c b8cf 823c
00000390: b880 c1bd a467 cebc 9ed0 72bc 4b04 27bc
000003a0: 2ec1 d73c 9835 1b3e 737d 94bd 4b9f af3d
000003b0: 6f9f 1f3e 5a1c 08be ac7e 973d 4682 97bd
000003c0: 7c80 88bc 48a2 383d 2f0e 9abd a0d3 e33d
000003d0: b7a8 f23d 0a94 97bd 2a73 e8bd ef45 28be
000003e0: 9c6e b3bd 5b15 72bd 65d3 f0bc 0988 67bd
000003f0: c9b6 9c3d 56de cc3d 3d7e bd3d c727 a1bd
-0.036062196 -0.17283626 0.015585539 -0.023776775 0.14243491 0.06086504 -0.049753267 -0.033050854
0.17128702 0.020151483 0.027310755 0.041330375 -0.13984622 -0.04095119 -0.0022227645 0.013477958
0.0022532302 0.044430222 0.024309428 -0.07496939 0.069108374 0.08779604 -0.12750532 0.07259351
0.074658625 0.07182693 0.0628114 -0.2984656 -0.20754984 -0.16592357 0.22574832 0.072464906
-0.05259641 0.0859592 0.04116956 0.06754552 0.16481955 0.2833208 0.12956011 -0.08624749
0.041748673 0.08223947 0.07725425 -0.14942825 -0.044262856 -0.11325413 -0.00031824847 0.15082374
-0.23928882 -0.04074304 -0.010867779 -0.09788065 0.02917961 0.00047354665 -0.012858029 -0.026706025
-0.09890273 0.006807838 0.003708365 -0.031611625 0.017277405 0.023824034 -0.08877401 -0.13564222
-0.07018508 -0.013725435 0.2293283 0.045431383 -0.045920998 -0.05026042 0.1035693 0.005875097
0.023769349 0.21286964 0.06822142 -0.16986226 -0.07216514 -0.04007944 0.09229875 0.05056044
0.03292611 -0.04299174 -0.030293845 -0.050276946 0.03099361 -0.009628391 0.07429792 -0.08481181
-0.13546093 0.011756147 0.049484633 -0.05678031 -0.13612218 0.16205944 0.081768654 0.07074275
0.05014161 -0.0074750455 0.12828366 -0.089627706 -0.05601077 -0.0930212 0.07840796 0.0062216762
-0.03612349 -0.05715637 -0.061124347 -0.009472181 0.119732216 0.048586797 0.08469653 0.17331818
0.112053126 -0.04446591 0.24180831 0.18467559 -0.0051770387 -0.02267813 0.051342264 -0.025082253
-0.018065872 0.048366074 -0.020339109 -0.05546442 0.07460143 0.038447592 0.074711025 -0.16362795
-0.11471021 -0.03526982 -0.09218223 -0.10078458 0.13859022 -0.029561717 0.0044282386 -0.08240258
-0.11292431 0.09664683 -0.07055996 0.009331421 -0.04673773 0.13351752 0.095371306 0.03453823
-0.063482374 -0.03102815 0.20114158 -0.08624284 -0.052339334 -0.09640739 0.14509352 0.079226814
0.11369822 0.13329549 -0.2590415 -0.045251176 -0.0011422624 -0.15398991 -0.2380002 -0.113595635
-0.07218961 -0.060990386 -0.0026078774 -0.064891756 0.093477905 -0.05606592 -0.06656617 -0.16631119
0.16350771 0.05525147 -0.036666147 0.019124223 -0.010034673 0.12782307 -0.0652593 0.06890331
-0.015853005 0.0016270863 0.013138523 -0.06785409 -0.15341619 -0.11648953 -0.08515137 0.022656884
-0.14669986 -0.05425233 0.0974365 -0.0031708516 -0.03966236 0.085897945 0.01608553 -0.051936258
0.025629483 -0.017795213 -0.10460905 -0.09863668 -0.012619225 -0.009006592 0.089029245 -0.18600282
-0.07061872 -0.15987962 0.04487703 -0.007825573 -0.058801044 -0.036696322 -0.2401297 0.12632029
0.29723495 0.07898456 0.08354461 0.122461885 -0.13291313 -0.3428211 0.0031437082 0.10041553
0.045720585 0.053898793 0.27202517 -0.009598064 0.07970194 -0.03525212 0.07863896 0.22929655
-0.10294362 -0.10061164 0.012395857 0.015968189 -0.09448379 -0.025195904 -0.014820246 -0.010193895
0.026337232 0.15157163 -0.0725049 0.085753046 0.15588163 -0.13292065 0.073972076 -0.073978946
-0.016662829 0.04507664 -0.075222366 0.11124349 0.11848586 -0.07401283 -0.11350091 -0.16432928
-0.087613314 -0.059102397 -0.029397676 -0.056526218 0.07652051 0.10003345 0.09252594 -0.07868915

conv3.bias f4 [48]
00000000: 2c07 79b9 79f9 ddb9 6533 0839 796d 9539
00000010: 3b8f 5b39 2bcc 5639 0f7a bbb9 cbf2 23ba
00000020: 0a91 6e39 f574 45b9 f1c6 9739 ddad a0b9
00000030: eff3 2b3a 75ac 6c39 e2fc 01ba abe3 8639
00000040: 4888 9739 6f3c 8e38 007a 8038 3208 9238
00000050: 976f ad39 d3da 9db8 f5e3 5d39 d13f 9939
00000060: 8ac4 7939 1674 e339 e78b 5cb8 1a1f b2b9
00000070: 1f9b 67b9 8153 32b9 707d b539 756d 143a
00000080: 9500 8539 3e4e 5b39 0675 02b9 66e2 2b3a
00000090: 0b68 7639 5208 b139 b8d7 01b9 69f0 e7b9
000000a0: 8594 06b7 25c7 1039 6ca8 9439 9738 8238
000000b0: bd17 dc38 7b72 8f39 1791 4db9 b0ad 16b9
-0.00023749162 -0.00042338276 0.00012989117 0.00028501058 0.00020938825 0.00020484689 -0.0003575836 -0.00062541355
0.0002275148 -0.00018830954 0.00028949187 -0.00030647116 0.0006559481 0.00022570959 -0.0004958642 0.00025728098
0.00028902502 6.782344e-05 6.12624e-05 6.963349e-05 0.00033080272 -7.5271026e-05 0.00021161123 0.0002922998
0.00023819707 0.00043383305 -5.258238e-05 -0.00033973978 -0.00022087664 -0.0001700651 0.00034616468 0.00056620623
0.0002536817 0.00020914615 -0.00012441361 0.00065568683 0.00023499147 0.0003376627 -0.0001238276 -0.00044238873
-8.021602e-06 0.00013807097 0.00028354244 6.209424e-05 0.00010494839 0.0002736038 -0.00019604374 -0.00014369818

bn3.weight f4 [48]
00000000: 9813 833f c637 7f3f d134 8a3f 8ab0 813f
00000010: 5464 4b3f 8cfc 8c3f 1646 803f 563b 853f
00000020: d1ea 843f 9751 823f 95ca 833f 1487 5d3f
00000030: dcb7 7f3f 8c63 803f a999 903f ab61 6f3f
00000040: 1b37 833f da58 703f 823b 703f 32f7 813f
00000050: 1460 823f 820c 873f 9585 813f df90 853f
00000060: f430 883f a6c9 753f 7b34 7c3f 0631 893f
00000070: 6b13 6a3f e67d 833f 11f8 773f 0123 8a3f
00000080: 0dbd 803f 4f4e 8f3f a743 833f 69c4 7b3f
00000090: cab1 8b3f 6495 813f 0423 833f a0dd 7b3f
000000a0: d59e 7c3f 5543 893f 3831 873f ce1c 8e3f
000000b0: e9aa 903f cf09 7e3f 5db7 8a3f 9a5c 813f
1.0240355 0.9969448 1.0797368 1.0132 0.79449964 1.1014571 1.0021389 1.0408733
1.038416 1.0181149 1.0296198 0.8653424 0.9988992 1.0030379 1.1296893 0.93508404
1.0251192 0.93885577 0.938408 1.0153563 1.0185571 1.0550692 1.0118891 1.0434836
1.0639939 0.96010816 0.9851758 1.0718086 0.9143588 1.0272796 0.96862894 1.0791932
1.0057694 1.1195773 1.0255021 0.98346573 1.0913632 1.0123715 1.0245061 0.9838505
0.9867986 1.0723673 1.0561895 1.110254 1.1302158 0.99233717 1.0837208 1.0106385

bn3.bias f4 [48]
00000000: 1e44 06bf d9c8 b7be 70e9 9ebe 2332 d5be
00000010: 71ce 9ebe aabc c1be d36c 89be df53 a2be
00000020: f765 d8be 1ba7 f6be cd86 86be b8af 9ebe
00000030: d717 aebe ccb5 8cbe c1a4 a1be b06b a8be
00000040: ee62 d4be bd49 a1be e70a babe 3b4b bbbe
00000050: 5e28 bdbe 6d9d b3be 81e6 5bbe 6671 bcbe
00000060: 9f07 a1be 94fe abbe 2c18 a2be 45be c2be
00000070: f518 a0be e1e6 cdbe adc1 dfbe 0d2e 96be
00000080: 80bd 9dbe 81d6 b2be 5fe8 b2be e828 8abe
00000090: f901 bebe a65a e7be d118 88be cf1e cfbe
000000a0: 4731 85be 2ba9 cdbe 518e dfbe fb06 abbe
000000b0: 0942 cbbe ec46 e1be 37d2 f5be 1ebc c7be
-0.5244769 -0.35895422 -0.31037474 -0.41639814 -0.31016877 -0.37839252 -0.2684084 -0.31704614
-0.42265293 -0.48174366 -0.2627472 -0.30993438 -0.34002563 -0.2748245 -0.3157101 -0.3289466
-0.41481727 -0.3150157 -0.36336443 -0.36580834 -0.3694486 -0.35081044 -0.21474649 -0.36805266
-0.31451127 -0.33592665 -0.31659067 -0.3803579 -0.3126904 -0.4021521 -0.4370245 -0.2933201
-0.3080864 -0.34929278 -0.3494291 -0.26984334 -0.3711088 -0.45186347 -0.26581433 -0.40453193
-0.26014158 -0.40168127 -0.43663266 -0.33403763 -0.39698818 -0.43999422 -0.48011944 -0.3901071

bn3.running_mean f4 [48]
00000000: 021b 27be 22c7 2e3e 477d 9abe 90b1 a4bd
00000010: e01e 773e 31a7 17bf 63e4 7c3e d5fe 98be
00000020: 1ce2 e7be 2255 e3be e322 49bf c781 8abe
00000030: 9a78 9d3e 3488 57be 692c 26be cce7 22be
00000040: 370d 86be 5032 cdbe 49fe 953c 9128 e6be
00000050: 8f87 b9be 16c3 c4be fafa 3dbe 1916 d4bd
00000060: f308 02be 623f 3abd 0e1a 1d3e 7ba2 c9be
00000070: 1b53 79be 698e 1c3d 79c6 dc3d 601d 18bd
00000080: c096 12be c11e 8dbe b329 12bf f75c 87be
00000090: 02bb 20bf 41d9 7bbc 1a12 74bd 31e5 70be
000000a0: 1ecc 103f f7a3 323b e71f d6bd 6073 143e
000000b0: dd5e 2fbe 4c42 2e3f 18f2 61bd 9c70 9fbe
-0.16318896 0.1706815 -0.30173704 -0.0804168 0.24132872 -0.5923949 0.24696498 -0.2988192
-0.45289695 -0.4440089 -0.7856886 -0.27052137 0.30756074 -0.21048051 -0.16227879 -0.15908736
-0.26181957 -0.40077448 0.01830973 -0.44952825 -0.36236235 -0.3843009 -0.18552771 -0.10355777
-0.12698726 -0.045470603 0.1534197 -0.39381775 -0.24348108 0.03822175 0.10780043 -0.03713739
-0.14315319 -0.27562526 -0.5709488 -0.26438114 -0.6278535 -0.015371622 -0.059587575 -0.2352493
0.5656146 0.0027258375 -0.10455304 0.14497137 -0.17126031 0.6806991 -0.05516252 -0.31140602

bn3.running_var f4 [48]
00000000: c8de 823d 1020 a33d 581b bd3d 299d 913d
00000010: 970d 923d 6b9f a43d f859 763d c951 603d
00000020: b9f0 933d e3b9 843d 9d68 c43d d200 c43d
00000030: 1217 543d f639 943d 7e4e 643d 61c9 9f3d
00000040: e133 813d 90be c73d 5267 823d 8021 5c3d
00000050: 52f2 6b3d 2ce5 af3d f409 e33d d949 683d
00000060: f21c d83d 7f73 6e3d 1fd3 463d 7275 6e3d
00000070: 979c ee3d 8791 6b3d 6673 7a3d 2c4a 563d
00000080: 9cc5 973d 3602 963d 8041 e43d b54d 753d
00000090: a75c c43d 158b 743d c76e b03d cd87 6b3d
000000a0: 9ef8 953d 0366 6d3d e93f 943d 5082 833d
000000b0: 8e49 8f3d 294c 7f3d 337d 8d3d 9797 553d
0.063901484 0.079651 0.09233731 0.07110054 0.07131498 0.08038219 0.060144395 0.054765496
0.072236486 0.064807676 0.09590266 0.09570469 0.051779814 0.07237618 0.05573892 0.07802082
0.06308723 0.09753144 0.06367363 0.053742886 0.05760414 0.08588633 0.11085883 0.05671105
0.10552396 0.058215614 0.048541185 0.058217473 0.11650961 0.057511833 0.06114521 0.05231683
0.07410738 0.073246405 0.11145306 0.05988856 0.095879845 0.05970295 0.08614879 0.057502557
0.073228106 0.057958614 0.072387524 0.064213395 0.06996451 0.06232849 0.069086455 0.05214652

fc1.weight f4 [128, 1728]
00000000: f7a4 07b7 30f3 30b7 d199 6db7 792b 0bb6
00000010: 8bfa 8ab7 47ad b7b8 9df8 d7b6 bc15 90b5
00000020: 22e7 59b7 5b7c 79b7 f79b 7fb6 20d9 0fb8
00000030: e63b 68b4 cdbb f1b2 fbb2 cdb4 acea 1db3
00000040: acaf 26b1 a26b 1cb3 6f03 3eb1 0eef 2bad
00000050: 80dc acb0 352f c5b2 10da 82ae c502 2aae
00000060: 7552 7097 122f 279a b548 e497 8152 4fa2
00000070: bee0 b79d dab0 949d 97e8 4684 f972 3705
00000080: f99a 0080 8981 4209 ed89 0000 5989 0000
00000090: 56b1 75b7 9185 16b8 0f8e a1b7 4afe 66b6
000000a0: 578b aab7 402f 47b7 1c1b ceb6 37f5 2fb6
000000b0: 58d8 0cb5 3f76 b5b4 522d 32b5 19d4 88b5
000000c0: fff7 5bb2 ef4e 10b1 0f6c 75b2 b9c1 86b0
000000d0: a829 8ab3 9f6f 9db3 8b7c ccae c523 51ac
000000e0: a45c b7b1 2035 9caf b880 e9ae 41a0 11b1
000000f0: f40c 44ae e139 99a4 0395 02ac 3a4f 9aac
00000100: 3bf0 b2ae 45c5 e4a7 fe76 53ae 2012 52a8
00000110: 7ebd dbae 132c d8ac f658 00ab f4ba 99aa
00000120: ad7f 87b2 c653 38b3 4109 17b1 0f4e 8eb1
00000130: 6760 e0b1 6911 7cb2 555d c4b2 5c0b 91b2
00000140: 98de 5fb2 4a0a 39b4 28cc 98b4 5be8 a1b3
00000150: 2275 07b2 b49e 67b1 604c 45b1 12a6 dab1
00000160: 1752 78b2 3d85 75b1 b4cc 5fb2 00d5 dbaf
00000170: 55cf 29b0 e0c2 81b1 ccd3 c3b0 4ec0 edb0
00000180: 88d6 57af b9f7 e9ad ce11 b3ae dd22 8daf
00000190: 8746 9bae baff 34ad ac3a 21a8 ba30 10a2
000001a0: 2bc8 53a7 a76a c0a8 b698 5da9 2087 38a7
000001b0: 9680 acb8 8dbb 5eb8 16cf a1b8 6b87 05b9
000001c0: 5f55 3cb9 c379 2fb9 c3b9 ccb4 ff1e eeb2
000001d0: 0b06 c9b1 9461 86b2 e0b5 3cb2 b84e c3b3
000001e0: b88e bcaa f5aa b325 2beb 7a27 d348 aaab
000001f0: 2da1 c6a8 e5bd e1a7 1ba7 4e8f bba0 0000
00000200: dd30 1a9a 5469 b593 5189 0000 8a00 3b8d
00000210: 158a 0000 6a89 0080 9e89 0080 3a8a 0080
00000220: c288 0000 3289 0080 dc88 0080 ca88 0080
00000230: cb89 0000 e68b 0080 f189 0080 0d8a 0000
00000240: 1903 36b5 a13b 8cb4 36e6 86b5 56e4 ccb5
00000250: d260 32b5 08a6 aeb5 d3c2 44b4 24dc 8db4
00000260: d92b 47b5 85be 24b6 c5de 46b6 a369 0cb6
00000270: 2d6a c0b4 ec35 c6b4 fb29 0bb5 fef7 8cb5
00000280: a05c 27b5 7e47 12b6 43f2 13b5 8b46 ffb4
00000290: 5990 bcb4 7fcc 02b5 3ad1 63b5 aee0 34b5
000002a0: ed95 86b5 f429 1bb5 6169 69b5 0d06 43b5
000002b0: 8c22 00b5 b974 51b5 8002 c4b5 1856 9ab5
000002c0: ddc6 8db5 8358 6bb5 79d8 6ab5 9a49 89b5
000002d0: 5592 27b5 ecb2 0eb5 4830 2ab5 0711 1bb5
000002e0: 869b 9eb3 0d9e c0b4 db51 6bb4 0c88 82b4
000002f0: 4c4a c8b3 7335 9db1 0bd9 c6b4 62c1 24b3
00000300: b484 50b0 ef1d fcae 594a 5eb0 1a48 23b1
00000310: 654b 10af c56f f2af 62fb b7a9 c353 d6b0
00000320: cad5 a4b1 a5cd ccaf 06ca 5ead 2c75 a4a9
00000330: 1bbb e3ac 4532 5fae 7e1b 9dac d7ca eca1
00000340: d33a 4ea1 6a6d f81d 3a1f 3fa6 7906 72a3
00000350: e7f4 cea2 5ac2 9da1 c62e 05a5 6a4b 77a0
00000360: ef38 c0b9 aa86 e5b8 9efe f1b9 30c2 07ba
00000370: b086 31ba cc46 65ba 3c33 0bb7 bfb9 4eb5
00000380: 5686 f6b7 66ec c9b7 5ded 61b7 57cd 45b7
00000390: dc82 51b2 36c6 3cb0 44c0 2eb2 91ae 22b3
000003a0: 6679 89b0 dcab f2af 4069 4f2f a0a6 83ab
000003b0: a80c 62ae c309 812e 0515 6eaf 054c 30ae
000003c0: 9b45 b397 3e51 6ca1 0639 49a8 5711 52a2
000003d0: a942 e696 55b7 0709 9888 3100 7f00 1692
000003e0: 28c8 4797 9733 a38c f41c f489 4c18 0509
000003f0: b41b 13ba fa6e abb9 c4f2 9fb9 573f bdb9
-8.085036e-06 -1.0547039e-05 -1.4162114e-05 -2.0737918e-06 -1.656755e-05 -8.7583954e-05 -6.4364417e-06 -1.0735162e-06
-1.2988023e-05 -1.487051e-05 -3.8088745e-06 -3.429607e-05 -2.1628475e-07 -2.8141494e-08 -3.831445e-07 -3.6767844e-08
-2.4256037e-09 -3.6419472e-08 -2.765059e-09 -9.773305e-12 -1.2577317e-09 -2.2955286e-08 -5.950451e-11 -3.8655985e-11
-7.765226e-25 -3.4572814e-23 -1.47525085e-24 -2.8097408e-18 -4.8672075e-21 -3.9358134e-21 -2.3381588e-36 8.625736e-36
-5.5594e-41 2.3412808e-33 4.9478e-41 4.9271e-41 -1.4644427e-05 -3.588718e-05 -1.9258847e-05 -3.4420686e-06
-2.0330464e-05 -1.1872326e-05 -6.1424344e-06 -2.6219766e-06 -5.2468886e-07 -3.3799913e-07 -6.6376117e-07 -1.0194518e-06
-1.28038655e-08 -2.0999626e-09 -1.4285447e-08 -9.804842e-10 -6.433703e-08 -7.331186e-08 -9.298969e-11 -2.9720542e-12
-5.336533e-09 -2.8413982e-10 -1.0618478e-10 -2.119137e-09 -4.4576745e-11 -6.6451224e-17 -1.855683e-12 -4.385739e-12
-8.1371763e-11 -6.3496592e-15 -4.8081532e-11 -1.1661272e-14 -9.9926276e-11 -6.1439825e-12 -4.5598193e-13 -2.7307984e-13
-1.5774129e-08 -4.291703e-08 -2.1978652e-09 -4.141618e-09 -6.5302177e-09 -1.4672289e-08 -2.2859846e-08 -1.6885387e-08
-1.303092e-08 -1.7233211e-07 -2.846075e-07 -7.539412e-08 -7.884667e-09 -3.3705136e-09 -2.8710687e-09 -6.363515e-09
-1.4454165e-08 -3.572793e-09 -1.30268525e-08 -3.9987214e-10 -6.177648e-10 -3.776549e-09 -1.4248314e-09 -1.7298676e-09
-1.9630353e-10 -2.6599044e-11 -8.14314e-11 -2.5672522e-10 -7.061112e-11 -1.0288598e-11 -8.950018e-15 -1.9541435e-18
-2.9390644e-15 -2.1362535e-14 -4.9204313e-14 -2.560838e-15 -8.22555e-05 -5.3103595e-05 -7.715651e-05 -0.00012734316
-0.0001796088 -0.0001673466 -3.813312e-07 -2.7720942e-08 -5.850557e-09 -1.5644027e-08 -1.0984394e-08 -9.094714e-08
-3.349454e-13 3.1167395e-16 3.4821954e-15 -1.2099439e-12 -2.2052315e-14 -6.265593e-15 -1.01887675e-29 5.7659e-41
-3.1885925e-23 -4.5794685e-27 4.926e-41 -5.7624473e-31 4.9534e-41 -4.9295e-41 -4.9368e-41 -4.9586e-41
4.906e-41 -4.9216e-41 -4.9096e-41 -4.907e-41 4.9431e-41 -5.0186e-41 -4.9484e-41 4.9523e-41
-6.780479e-07 -2.6120418e-07 -1.0050778e-06 -1.5265639e-06 -6.645106e-07 -1.3012332e-06 -1.8324799e-07 -2.642347e-07
-7.4197084e-07 -2.4548801e-06 -2.9633968e-06 -2.0923114e-06 -3.584004e-07 -3.6919607e-07 -5.1842625e-07 -1.0502988e-06
-6.2347135e-07 -2.179731e-06 -5.5114305e-07 -4.7548778e-07 -3.5122756e-07 -4.8726355e-07 -8.4868554e-07 -6.738218e-07
-1.0027412e-06 -5.780305e-07 -8.695261e-07 -7.2651966e-07 -4.773399e-07 -7.802842e-07 -1.4603866e-06 -1.1498951e-06
-1.0563195e-06 -8.7673124e-07 -8.74868e-07 -1.0228716e-06 -6.242529e-07 -5.315949e-07 -6.3400194e-07 -5.776678e-07
-7.385738e-08 -3.5877784e-07 -2.191586e-07 -2.4313374e-07 -9.32674e-08 -4.575378e-09 -3.7038293e-07 -3.8360106e-08
-7.585854e-10 -1.14649505e-10 -8.0868784e-10 -2.3760607e-09 -1.3123509e-10 -4.409896e-10 -8.1704405e-14 -1.5594356e-09
-4.797333e-09 -3.7253503e-10 -1.2664097e-11 -7.303389e-14 -6.472501e-12 -5.0748978e-11 -4.4652606e-12 -1.6045673e-18
-6.987337e-19 6.5758185e-21 -6.6308757e-16 -1.3120217e-17 -5.6095712e-18 -1.0690178e-18 -1.1551759e-16 -2.0946666e-19
-0.00036663513 -0.00010944654 -0.00046156807 -0.00051787775 -0.0006772084 -0.00087462063 -8.296975e-06 -7.7011276e-07
-2.938804e-05 -2.4071149e-05 -1.34663105e-05 -1.1789924e-05 -1.2195155e-08 -6.8675676e-10 -1.0171849e-08 -3.787733e-08
-1.0002565e-09 -4.4141657e-10 1.8863933e-10 -9.354358e-13 -5.139769e-11 5.867975e-11 -2.1653442e-10 -4.0085286e-11
-1.1585175e-24 -8.0067433e-19 -1.1170106e-14 -2.8469487e-18 -3.7200573e-25 1.6336236e-33 4.54894e-39 -4.7332266e-28
-6.4553e-25 -2.5145176e-31 -5.876809e-33 1.6020717e-33 -0.0005611733 -0.00032698346 -0.00030507718 -0.0003609608

fc1.bias f4 [128]
00000000: f292 4fb8 811a 37b9 ee01 cd3d f7f9 933d
00000010: e33a 2ab2 7c6f 063e d2ba 8a3d 743d 11bb
00000020: f833 8b3d 7cc2 7dbc b22d afbc a708 bb3d
00000030: efbd 26b9 e3ee cebb a7ce a3b4 6983 95bd
00000040: 1f9f a2b6 c7d0 60b4 3039 cb3d b78c f1a3
00000050: 6c64 44b0 2b95 4dab 1edc 7ab9 fe83 49b5
00000060: 93a3 3abd 7d71 61b7 b9b2 8db1 f8dd 673d
00000070: 576e d53d f388 0000 f867 f33d ad39 4ca0
00000080: cb6e 043e 9556 edbc 5c20 65ba 379a 08bd
00000090: 9260 0b3e a24a af3d 888f 4f3d 1be1 dbb5
000000a0: 2150 a6b8 4e8e 67b8 04d1 91bb 0885 cdb4
000000b0: 9988 973d 6dfa 35bc 71c2 e2b5 da9a 333c
000000c0: 764d 39b9 f6c4 483c 3456 13b5 a95d a93d
000000d0: 4ab7 40ac 7a01 9bbc d344 2eba 916c d73d
000000e0: b575 eebc 5b58 2eb6 ac69 c03d 1640 7dbc
000000f0: ec1d a1ba ad6f b53d e75e eb3d 2f19 adbd
00000100: 3372 1c3e 3875 97bb 1f59 c8b2 33e3 c9ad
00000110: 54ae 023e 3830 69bc a39a d1b2 eea1 ff3d
00000120: 97d3 883d 0d62 2f3c d927 a13d ee23 8cae
00000130: 3ea6 f5b3 c1c2 85b6 bcca 70bb 63ec 8fb4
00000140: c157 f13d 07ef b5b2 d243 673d 82fe e23d
00000150: 3e04 82bb f6c5 df3d fe3c 0d3d 095e 28ae
00000160: c100 0dbc 99a3 0e9c 00f9 fab7 424c c93d
00000170: 0022 983d 3046 7bbc 135f bdb3 2bff 1abd
00000180: c009 9fb8 c6f7 293e 14b3 cf3d b4df 93bb
00000190: e7a9 303d 0a3c 193d 353b ba3d 95d0 1d3d
000001a0: 5e95 ab9f c7e4 b53c 5b58 133d c1c6 b83d
000001b0: 4cd2 813d 809d f7bc c77f e9bb a435 a0bc
000001c0: 3308 e2ba f4f1 51b8 f899 7e3d 794a 2b3e
000001d0: 5420 d13d 7ec7 47bb b69d c53b c7a8 45bd
000001e0: 00a0 8cb2 e1c2 a63d 81d1 073e 15c3 1ba5
000001f0: 580a 39bc 64d6 6b3d e48d 233e c43a 4eba
-4.94895e-05 -0.00017462113 0.10010134 0.072254114 -9.908692e-09 0.13128465 0.067739144 -0.0022161873
0.067970216 -0.015488263 -0.021384094 0.0913251 -0.0001590175 -0.0063150986 -3.0511475e-07 -0.07300455
-4.8465004e-06 -2.0937578e-07 0.09923017 -2.6188867e-17 -7.144709e-10 -7.303764e-13 -0.00023923858 -7.507041e-07
-0.045566153 -1.3437469e-05 -4.1239585e-09 0.05660817 0.10421436 4.9128e-41 0.11885065 -1.7298555e-19
0.12932889 -0.02897195 -0.00087404787 -0.033350196 0.13611057 0.08559157 0.05067399 -1.6382286e-06
-7.930422e-05 -5.5207223e-05 -0.0044499654 -3.8281019e-07 0.07399101 -0.011107069 -1.6894902e-06 0.010962212
-0.00017671831 0.01225399 -5.488721e-07 0.082698174 -2.7386587e-12 -0.018921603 -0.0006647829 0.10518754
-0.029108861 -2.597945e-06 0.09395155 -0.015457174 -0.0012292243 0.08859191 0.114927106 -0.08452069
0.15277939 -0.004622128 -2.3323592e-08 -2.2951951e-11 0.12761813 -0.014232688 -2.4401123e-08 0.124820575
0.066809826 0.0107045295 0.078689285 -6.372845e-11 -1.1438941e-07 -3.986381e-06 -0.0036741933 -2.680782e-07
0.11784316 -2.117987e-08 0.056461163 0.110837 -0.003967791 0.1092643 0.034481995 -3.8282297e-11
-0.008606137 -4.7195304e-22 -2.9918272e-05 0.09828998 0.0742836 -0.015336558 -8.818292e-08 -0.037841003
-7.583527e-05 0.16598424 0.10141578 -0.0045127515 0.04313078 0.037410773 0.09093324 0.038528997
-7.2668424e-20 0.022203816 0.035972934 0.09022284 0.06338939 -0.030226469 -0.007125828 -0.019556828
-0.0017244875 -5.005482e-05 0.062158555 0.16727628 0.10211244 -0.0030483897 0.0060307635 -0.04825666
-1.6370905e-08 0.08142639 0.13263513 -1.3510203e-16 -0.01129397 0.057577506 0.15972096 -0.0007867033

fc2.weight f4 [8, 128]
00000000: 826f f5ba a8ac 46bc c73d d23d 662a 073f
00000010: 7fa1 d3b9 4c28 453e a92d 4abc 4f35 2c3c
00000020: 26de 703e 45d2 dcbc 3b58 c4be 246a ba3d
00000030: 192d e6bb 8668 1abd 1bc0 17b6 636c a1bd
00000040: 487e 15bb 768d 803c c2d4 4c3d adf2 e2b6
00000050: 2f39 ddbb f406 f8b9 ffec 913c 86a8 03bd
00000060: 096d babe d6a8 3bb9 979d d8b6 68f8 9b3d
00000070: fb5f ab3e 3757 843b f1fd dd3c 4009 a033
00000080: a096 f03d a85b 51bd 1ba4 a53b be28 27bf
00000090: 0b61 313e 3c60 2b3e 2983 413d 9bcd 30b0
000000a0: a43f 03bc e471 303c 0249 a7b9 cdcc 4d37
000000b0: a725 8d3c 8594 78be a29d 75b6 2e4a 14bf
000000c0: b366 9cbc 65b7 debe b547 ccb2 93fa dc3d
000000d0: 707e 7caa 8c8f 2d3d 700b 9ebb 07f1 803e
000000e0: 7ca1 bfbe e36a 5c3a 0d0a d33e e10b 4cbc
000000f0: 0801 213c 837e 343e 4628 0a3f 98c0 f6be
00000100: 73f0 2c3e 735b 19bd c969 bfb9 9280 6634
00000110: eb48 bf3d c3af 70ba 8742 94bc 19a7 693e
00000120: 85d1 57bd 9aaf 5ebf 5f34 4d3e e75b 76bb
00000130: 0139 6bbc 331b 193c 1aeb 52bb 1977 87b1
00000140: bdfc 8cbe f5c4 6634 1eff f7be 2a80 043f
00000150: 061d f1be 62be f83d 9fbb ffbe 5a08 4cb7
00000160: 360f 08bf 2a14 0000 9fc0 37ba 5120 663d
00000170: 93fa 95be ed8b 6dbb 2678 53bc 1505 aabe
00000180: 23e4 d03a 3119 423e 4845 ed3b 497a 73bc
00000190: ace2 ef3c 765c 65bc 24c4 2d3e 1269 69bd
000001a0: a722 68b4 97e5 81be 322a bbbe 7915 363e
000001b0: 3957 813e 0d08 16bf 0fe3 f1be e502 2abd
000001c0: e0b5 7c3c b2b1 93bb b942 943e 43ef 643e
000001d0: d0bf 8a3e c299 c2be a073 1c3b 0448 91bd
000001e0: b26f df2f 3133 63be 1ff9 623e afb7 acb5
000001f0: 94dc c43d 5666 ae3d 6816 213e 9cfe feba
00000200: edb2 ffbb 9a26 19bc 4dab c83e 3b8b eebe
00000210: 2ef0 83ba b392 2d3e cc3f d23d b714 9dba
00000220: 9147 b23d c957 e03c 070f fdbe c867 7e3c
00000230: f636 1abb f2be e23c 252f 54ba 47e9 ad3c
00000240: 8249 6d3b 77ea 27bc 24d3 2c3e 00ab d1b9
00000250: f06c 1bbc 433c 91bb a731 883b a48a 643c
00000260: 325e 10bf 50c4 b9ba 0a57 6f39 9d68 c1be
00000270: ee3a 87be b77d 49bc 3059 e43d 83ac 15b4
00000280: 2c2e 3a3d fd58 503c 6831 943b 18c8 86be
00000290: 0a8c c93d dc3e 9abe 1fa4 2d3e c0f9 b537
000002a0: 59a7 ae3b b166 6cbd 0680 0abc 12af 11ba
000002b0: 43cd fdbe 7503 083c 582a 56ba 70d1 51be
000002c0: 96d1 e43c 9a37 d73d 5f4e e3b6 2874 e93c
000002d0: 6381 89aa 2132 5f3d c4e6 00bc 5144 23bf
000002e0: 227d b9be 9ff0 d9bb 91ad cdbe 8ddd 59bc
000002f0: 5df8 c538 ade3 243e 2236 acbd 58d5 5dbe
00000300: 64f4 8cbe 7ca0 56bb e71b e43a 82a8 5fb7
00000310: 2bfc 793e 51fe a33a e26c 883b ab33 d0bd
00000320: e163 e53d 94f9 8d3b ff97 bdbe fe74 07bb
00000330: 460c 02bd 46e4 df3c 3719 5c3c ea2d 0e37
00000340: 00b2 d5be 7df8 c03b fba6 f13d f1f1 a6be
00000350: 538b 503e b26e 403e a832 de3d 0e41 a03b
00000360: 25d6 d03d afee bf88 bd90 3cbb 72de 3fbd
00000370: 8771 ba3e 9d41 133c e9eb 913c 3848 f5be
00000380: 0382 19bc a653 d53d fa7c b7be e2a4 a1bb
00000390: 9b7f ccbe dc0f 0dbd e95c 143d c78e dd3d
000003a0: cdc3 b637 dc7a 4d3e 4174 5f3d 3bfa 1abe
000003b0: 8c24 8abe efd4 b5be 4746 6a3d 5b34 6a3b
000003c0: 5cc6 7fbc eeee 263d c185 8dbe 4f62 653c
000003d0: a880 cfbe eb29 94be a259 c23c 2a7e a4be
000003e0: 3f70 86b7 94e1 083e 0cf0 0fbe e1c3 a6b9
000003f0: bff2 c9be e47a c4be 4442 053c 972e c0bb
-0.0018725249 -0.012126125 0.10265689 0.5279907 -0.0004036538 0.19253653 -0.012339988 0.010510757
0.23522243 -0.026955733 -0.38348565 0.09102276 -0.007024419 -0.037697338 -2.2612574e-06 -0.07882001
-0.0022810865 0.015692454 0.05000759 -6.763576e-06 -0.0067512016 -0.00047307427 0.017813204 -0.03214314
-0.36411312 -0.00017896606 -6.4556475e-06 0.07615739 0.33471665 0.004038717 0.027098628 7.452263e-08
0.117474794 -0.0511128 0.0050549633 -0.6529654 0.17322175 0.16735929 0.047244225 -6.432061e-10
-0.008010779 0.010769341 -0.00031907117 1.2266636e-05 0.017229868 -0.24275406 -3.65996e-06 -0.5792569
-0.01909194 -0.43499294 -2.3781334e-08 0.10789981 -2.2425963e-13 0.042373225 -0.004823141 0.2518389
-0.3742789 0.00084082613 0.41218606 -0.012454004 0.009826906 0.17626385 0.539677 -0.48193812
0.16888599 -0.03744073 -0.00036509175 2.1467193e-07 0.0934008 -0.0009181464 -0.018098129 0.22817649
-0.052690048 -0.86986697 0.20039509 -0.00375914 -0.0143568525 0.009344864 -0.0032183588 -3.942557e-09
-0.27536574 2.1492072e-07 -0.48436826 0.5175806 -0.47092456 0.12145688 -0.4994783 -1.2161292e-05
-0.5314821 7.234e-42 -0.0007009599 0.056183163 -0.29292735 -0.0036246732 -0.012907064 -0.33207002
0.0015937131 0.18954922 0.007240925 -0.014860698 0.02928289 -0.013999095 0.16969353 -0.05698497
-2.161929e-07 -0.25370476 -0.3655563 0.17781629 0.25261858 -0.58606035 -0.47243544 -0.041506667
0.015424222 -0.004507267 0.28957155 0.22356896 0.27099466 -0.38007933 0.0023872629 -0.07093814
4.0642828e-10 -0.22187497 0.22165345 -1.2868458e-06 0.096123844 0.08515613 0.15731204 -0.0019454542
-0.007803312 -0.009347582 0.39193192 -0.465906 -0.0010066086 0.16950493 0.102660745 -0.0011984323
0.087050565 0.02738561 -0.49425527 0.015527673 -0.0023531294 0.02767894 -0.0008094183 0.0212294
0.0036207144 -0.010248772 0.16877419 -0.0003999099 -0.009486422 -0.0044322326 0.0041563096 0.01394907
-0.5639373 -0.0014172886 0.00022825241 -0.37775126 -0.26412147 -0.012298039 0.11149824 -1.3939466e-07
0.04545419 0.012716529 0.0045224912 -0.26324534 0.098411635 -0.30126083 0.16957138 2.169318e-05
0.005330008 -0.05771512 -0.008453375 -0.00055573985 -0.49570665 0.0083016055 -0.0008169762 -0.2049005
0.02793197 0.10508652 -6.774251e-06 0.02849777 -2.442587e-13 0.054491166 -0.007867519 -0.6377612
-0.3622828 -0.0066509987 -0.40171483 -0.013297451 9.439953e-05 0.16102476 -0.084087625 -0.21663415
-0.27530205 -0.0032749465 0.0017403335 -1.333107e-05 0.244126 0.0012511705 0.0041633705 -0.10166105
0.11200691 0.0043327305 -0.37030026 -0.0020669098 -0.031749986 0.027330529 0.013433746 8.47455e-06
-0.41737366 0.005888997 0.11799427 -0.32606462 0.20365648 0.18792227 0.10849506 0.0048905676
0.10197095 -1.1551509e-33 -0.0028772794 -0.046843 0.3641474 0.008987811 0.017812686 -0.4790666
-0.009369376 0.10416345 -0.35837537 -0.0049329856 -0.39941105 -0.034438953 0.03622142 0.10818248
2.1787268e-05 0.20066398 0.054554228 -0.15134518 -0.26981008 -0.35514018 0.057195928 0.0035736773
-0.015611257 0.040755205 -0.2764111 0.014000489 -0.40527844 -0.2893823 0.02372438 -0.32127506
-1.6026313e-05 0.13367301 -0.14056414 -0.00031807928 -0.39443013 -0.38375008 0.008133475 -0.005864929

fc2.bias f4 [8]
00000000: b1d4 ac3e 4c3d d73d 32dd 713e 9510 a23d
00000010: f339 dfbe dcec bc3d 0471 adbe 258d 19be
0.3375602 0.10509738 0.23619536 0.07913319 -0.435989 0.09224865 -0.33875287 -0.14995249
